backend/modules/valuations/ml/models/estimate-wro-aparts-mlp.pth (torch, 155496 bytes, 5 tensors)

net.0.weight f4 [256, 19]
0.36329094 0.15517087 0.073350415 0.05273 -0.12836643 0.13067482 -0.21354784 0.15077572
-0.106725 0.3211001 0.12007152 -0.06567804 -0.040723983 0.09189706 0.071611874 0.20969419
0.084515 0.060310297 -0.017594466 -0.02304173 -0.34632337 0.06482308 0.05894287 0.23194095
0.1717302 -0.015932504 0.05557618 0.09117258 -0.10695696 0.072592415 -0.09990924 0.16937417
0.1053998 0.000969391 0.16736197 0.24422106 -0.23827513 0.09012024 -0.0020581912 -0.09480149
-0.38344797 -0.18454196 -0.35579857 -0.35403594 0.08549295 -0.2235605 -0.05080942 0.13625409
0.02517802 -0.03351591 0.002620504 0.1014295 -0.023388172 0.099328265 0.17816488 0.083415546
0.09772955 0.24832568 -0.047469538 -0.11231416 0.06294181 0.0046459166 -0.16138814 0.12859777
-0.035509016 -0.09002938 -0.11787384 0.15800625 0.15983845 0.00344586 0.17189042 0.19401525
-0.0068705613 0.09442035 0.0010770968 -0.027504286 0.012843816 0.19724183 -0.12115286 0.22360718
0.123280786 -0.28968465 0.054197136 0.023389522 -0.20797165 -0.14493348 0.21681388 0.12748857
-0.06681803 -0.051739626 -5.9830607e-05 0.20242383 -0.08047731 -0.15660034 0.1796103 -0.20368896
0.32995665 -0.04744858 -0.1466977 0.08763523 0.11055276 0.047362432 -0.00028199545 -0.11431185
0.19953793 -0.014867515 0.08103681 0.21732892 0.14791137 -0.011104413 0.019396061 0.06701317
-0.010078449 0.21755649 0.058382727 -0.49316314 -0.052229457 -0.12997124 -0.01726184 0.04684238
-0.05934239 -0.05210662 -0.036591522 -0.052001104 -0.17019638 0.24811274 0.108265504 0.14124939
-0.15998827 0.06272369 -0.043461334 0.17576444 0.21654788 -0.10675251 0.17660354 0.13114834
0.052868612 0.34074295 0.010676937 -0.2202822 0.0777168 -0.043838825 -0.119966 0.038626783
0.10080713 0.028285937 0.25069842 0.04713184 -0.056501683 -0.03887554 0.007347437 0.09366161
-0.23632005 0.11780334 -0.21527547 0.06406962 0.020362578 0.1360151 -0.116883464 0.10363409
-0.052509855 -0.013675036 -0.008402067 -0.042916574 0.08272669 0.09185299 0.025450228 0.14589511
-0.020797282 0.1981343 0.15103358 0.2112979 -0.15272984 -0.09357072 0.27458146 -0.18837823
0.04877981 -0.058703106 -0.068189204 -0.21828409 0.13975666 -0.06452229 0.122977436 -0.027582154
-0.13980557 -0.04263322 -0.029439509 0.11095227 -0.18832356 0.013571227 0.030056363 0.22215296
-0.014176867 -0.42453235 0.11142787 -0.0961404 -0.33787426 -0.09411071 0.0678495 0.048319623
0.008275669 0.18680389 -0.077306956 -0.048002195 0.040448066 -0.11757837 -0.022124289 -0.12965345
-0.0820152 0.09585671 -0.2301716 -0.07453401 -0.31884667 0.106370255 0.01858841 -0.14559735
-0.054280095 -0.03627916 0.13648091 0.034680914 -0.03702743 0.032925747 0.064941995 0.0715046
0.15981252 0.11313756 -0.06454339 -0.13008036 -0.18268518 0.284457 0.30146256 -0.2073145
0.022784611 0.17895502 -0.11163648 -0.11430233 -0.02848526 -0.023572763 -0.050525367 0.19187951
-0.067788646 -0.070614 0.14462326 -0.07113984 -0.015378779 0.121836945 0.121794865 0.28068808
0.22372514 -0.06292546 -0.2914716 0.043604247 -0.10868053 -0.14167786 0.13009009 -0.0077183135
00000000: 4501 ba3e 1de5 1e3e be38 963d 6afb 573d
00000010: 7d72 03be 9fcf 053e 49ac 5abe f364 1a3e
00000020: a392 dabd 3b67 a43e 0fe8 f53d 3582 86bd
00000030: 31ce 26bd 8734 bc3d 3fa9 923d 13ba 563e
00000040: 3316 ad3d ee07 773d 4522 90bc 03c2 bcbc
00000050: 4c51 b1be f7c1 843d 146e 713d ee81 6d3e
00000060: 0bda 2f3e e284 82bc d9a3 633d b1b8 ba3d
00000070: 400c dbbd 55ab 943d 379d ccbd 6c70 2d3e
00000080: dadb d73d bb1e 7e3a f060 2b3e 1615 7a3e
00000090: 65fe 73be f690 b83d b8e2 06bb 4927 c2bd
000000a0: 4b53 c4be 91f8 3cbe 3b2b b6be 3344 b5be
000000b0: ee16 af3d 0bed 64be 8a1d 50bd 3186 0b3e
000000c0: 2342 ce3c fb47 09bd c3bc 2b3b 45ba cf3d
000000d0: 8d98 bfbc 9e6c cb3d db70 363e c5d5 aa3d
000000e0: 6e26 c83d 1649 7e3e 6b6f 42bd f704 e6bd
000000f0: a3e7 803d c63c 983b ef42 25be 22af 033e
00000100: e771 11bd 5361 b8bd d767 f1bd 64cc 213e
00000110: b1ac 233e f0d3 613b 0b04 303e efab 463e
00000120: 7222 e1bb 755f c13d 5f2d 8d3a ab50 e1bc
00000130: de6e 523c c3f9 493e fe1e f8bd 48f9 643e
00000140: a37a fc3d 8c51 94be d1fd 5d3d 629b bf3c
00000150: 85f6 54be 7169 14be 7504 5e3e 5d8c 023e
00000160: e4d7 88bd eeec 53bd a0f2 7ab8 3148 4f3e
00000170: 4ad1 a4bd d75b 20be c3eb 373e d793 50be
00000180: 14f0 a83e 7159 42bd ec37 16be 197a b33d
00000190: 7c69 e23d 1cff 413d cad8 93b9 551c eabd
000001a0: ac53 4c3e e196 73bc a1f6 a53d 798b 5e3e
000001b0: 1476 173e 49ef 35bc 7de4 9e3c 333e 893d
000001c0: 1420 25bc 21c7 5e3e ba22 6f3d e17f fcbe
000001d0: 8eee 55bd 2e17 05be b468 8dbc ccdd 3f3d
000001e0: 0211 73bd c06d 55bd fee0 15bd 1cff 54bd
000001f0: f647 2ebe 4411 7e3e 4eba dd3d aea3 103e
00000200: f7d3 23be 4775 803d 8304 32bd 98fb 333e
00000210: babe 5d3e 0fa1 dabd 8fd7 343e c04b 063e
00000220: c28c 583d dc75 ae3e 52ee 2e3c a891 61be
00000230: fc29 9f3d 5790 33bd bcb0 f5bd 1e37 1e3d
00000240: f873 ce3d e9b7 e73c 8b5b 803e 510d 413d
00000250: 4f6e 67bd f53b 1fbd c5c2 f03b a8d1 bf3d
00000260: e2fd 71be e142 f13d 2c71 5cbe ef36 833d
00000270: 6ccf a63c 8b47 0b3e 9960 efbd 1c3e d43d
00000280: 9314 57bd 420d 60bc d3a8 09bc 4ac9 2fbd
00000290: 9c6c a93d 6c1d bc3d ff7c d03c 8765 153e
000002a0: 105f aabc b8e3 4a3e 8ca8 1a3e 7a5e 583e
000002b0: 3665 1cbe 01a2 bfbd f195 8c3e 39e6 40be
000002c0: 57cd 473d ab72 70bd c8a6 8bbd dd85 5fbe
000002d0: 5f1c 0f3e 4324 84bd 98db fb3d f8f3 e1bc
000002e0: 3129 0fbe 2ca0 2ebd 202b f1bc f23a e33d
000002f0: e4d7 40be da59 5e3c c338 f63c 117c 633e
00000300: 1746 68bc 4e5c d9be 4c34 e43d 42e5 c4bd
00000310: dbfd acbe 1ebd c0bd aef4 8a3d ccea 453d
00000320: ac96 073c 8549 3f3e 1c53 9ebd f39d 44bd
00000330: dfac 253d eecc f0bd ff3d b5bc e0c3 04be
00000340: 96f7 a7bd 8650 c43d 1bb2 6bbe 49a5 98bd
00000350: df3f a3be a6d8 d93d b946 983c 7917 15be
00000360: ce54 5ebd 7599 14bd a7c1 0b3e 930d 0e3d
00000370: 13aa 17bd 26dd 063d 4f00 853d 0171 923d
00000380: e5a5 233e aab4 e73d 532f 84bd c933 05be
00000390: d311 3bbe 59a4 913e 4d59 9a3e 414a 54be
000003a0: cba6 ba3c fc3f 373e aba1 e4bd 5717 eabd
000003b0: ec59 e9bc ab1b c1bc b0f3 4ebd 107c 443e
000003c0: c6d4 8abd 139e 90bd 1f18 143e c4b1 91bd
000003d0: 46f7 7bbc a685 f93d 966f f93d 59b6 8f3e
000003e0: 3418 653e 10df 80bd c43b 95be 5e9a 323d
000003f0: e693 debd 0014 11be 5636 053e e8e9 fcbb

net.0.bias f4 [256]
-0.41823888 -0.3624985 -0.17718332 0.031889584 -0.28626263 -0.21720517 0.018749312 -0.12730089
0.028399192 -0.030735215 -0.047824375 -0.14303555 0.024600485 -0.0025845573 -0.2586332 -0.31916967
-0.25262994 -0.20153525 -0.31822264 -0.11737447 -0.12587461 -0.15808094 0.19013819 0.046285458
0.09798834 -0.0034456016 -0.15532894 -0.30486268 -0.2632269 -0.29205963 -0.32499942 -0.19789314
-0.06402604 -0.16541082 -0.20975281 -0.13586558 -0.039193414 0.013140914 -0.18603888 -0.04398151
-0.2049984 -0.23111795 -0.26820317 -0.12501137 0.07558656 -0.17781983 -0.24532266 -0.18517418
0.03561725 -0.3233441 -0.22936168 -0.1659421 -0.0071039125 -0.08751386 -0.11691182 -0.3940022
-0.34178707 -0.1927004 -0.17784616 -0.30686983 -0.10375297 -0.19046885 -0.20722307 0.041239385
-0.27635002 -0.22641107 -0.035761952 -0.10578946 -0.11871968 -0.1677817 -0.14476128 -0.56294274
-0.0867901 -0.23821853 -0.21554475 -0.15049453 -0.2895964 -0.15089154 -0.094077736 -0.22952874
-0.07311016 0.07603545 -0.22420497 -0.16883484 -0.21470802 -0.27289578 -0.09674872 -0.34730712
-0.098929964 -0.34160498 -0.049095556 -0.31184116 0.08414082 0.087538294 -0.20363338 -0.09504915
0.03220141 -0.16579802 -0.09142728 -0.22975236 -0.25718325 -0.2255535 -0.023158848 -0.028097607
-0.110546865 -0.21687864 -0.3012961 -0.29794425 -0.11287793 -0.23418415 -0.38667688 -0.24444821
-0.32622287 -0.31815454 -0.12629868 -0.35690585 -0.33645225 -0.38421044 -0.17000236 -0.4356187
-0.11554685 -0.293452 -0.1649932 -0.24870493 -0.074756525 -0.15519646 -0.03871951 -0.29276332
-0.24171136 -0.27833107 0.16640036 -0.28317738 0.17893848 -0.05652794 -0.46638104 -0.16515292
-0.34190786 -0.19333236 -0.17970164 -0.19892362 -0.26989505 -0.16956173 -0.079295315 -0.10473004
-0.3917481 -0.19222668 -0.16355076 -0.30360442 -0.2597856 -0.12904271 -0.16752385 -0.062139403
-0.05884021 0.13757224 -0.126813 -0.033310786 -0.0006858798 -0.36268485 0.0019635982 0.058902107
0.06877929 -0.14265494 0.0070514935 0.015795842 -0.206828 -0.22104135 -0.3568693 -0.46285418
0.019039247 -0.33169717 -0.04368904 -0.32041502 -0.11056202 -0.259234 -0.40236086 -0.22843716
-0.030184219 -0.27527097 -0.18572336 -0.0014165539 -0.24209504 -0.013136514 -0.09579093 0.087659776
0.05764131 -0.245774 -0.12141908 -0.05331149 0.08567384 0.16315691 -0.3004676 0.017918384
-0.20585597 -0.3929864 -0.13539493 -0.11590222 -0.21954943 -0.3089773 -0.21823786 -0.15386967
-0.30915838 -0.05241177 -0.12066566 -0.018783117 -0.24481961 -0.13915502 -0.26868618 -0.08772854
-0.36518204 -0.08405909 -0.092717394 -0.0022719707 -0.055204496 -0.29638472 0.024802446 -0.13573426
0.039090466 0.08097424 -0.052218813 -0.1943231 -0.029802548 0.14557056 0.18940175 -0.33139038
-0.38599226 -0.16866806 -0.073915415 -0.057972442 -0.21840282 -0.13817856 -0.23130687 -0.11939706
-0.14602663 -0.06519205 -0.27845728 -0.04167566 -0.13460399 -0.10118061 -0.059275765 -0.21205209
-0.06849222 -0.34208497 -0.19820493 -0.20788434 -0.12310456 -0.113877386 0.018069465 -0.07455142
-0.22348353 -0.077918835 -0.15356609 -0.25198895 -0.28793874 -0.14729695 -0.05319237 -0.2661995
00000000: 6823 d6be 6799 b9be 8b6f 35be a79e 023d
00000010: 0491 92be 086b 5ebe 2898 993c 2a5b 02be
00000020: 6ca5 e83c 6bc8 fbbc 7ee3 43bd e977 12be
00000030: f586 c93c ad61 29bb 926b 84be 356a a3be
00000040: b658 81be 425f 4ebe 14ee a2be 0762 f0bd
00000050: 46e5 00be f8df 21be 96b3 423e d295 3d3d
00000060: 1cae c83d 9acf 61bb 8d0e 1fbe f616 9cbe
00000070: adc5 86be d788 95be 5366 a6be 80a4 4abe
00000080: 1620 83bd 7461 29be 71c9 56be 5920 0bbe
00000090: 4689 20bd fd4c 573c fa80 3ebe f525 34bd
000000a0: 1aeb 51be 2faa 6cbe ed51 89be fb02 00be
000000b0: 20cd 9a3d 6716 36be dd35 7bbe 4d9e 3dbe
000000c0: 65e3 113d 5c8d a5be cadd 6abe baec 29be
000000d0: f0c7 e8bb 773a b3bd 776f efbd a8ba c9be
000000e0: b7fe aebe 4153 45be 4e1d 36be 0b1e 9dbe
000000f0: 707c d4bd 440a 43be 4932 54be a1ea 283d
00000100: c07d 8dbe 4ed8 67be 207b 12bd 25a8 d8bd
00000110: 4e23 f3bd f7ce 2bbe 4d3c 14be 041d 10bf
00000120: 02bf b1bd 8fef 73be c3b7 5cbe 3d1b 1abe
00000130: fb45 94be 5083 1abe d4ab c0bd 9509 6bbe
00000140: c8ba 95bd 79b8 9b3d fd95 65be 0ae3 2cbe
00000150: 6bdc 5bbe ffb8 8bbe 3124 c6bd 3dd2 b1be
00000160: cb9b cabd d9e6 aebe 6c18 49bd a5a9 9fbe
00000170: 0652 ac3d 4747 b33d 4585 50be 21a9 c2bd
00000180: a0e5 033d f5c6 29be 3a3e bbbd 3444 6bbe
00000190: 86ad 83be 7ff7 66be a0b7 bdbc f42c e6bc
000001a0: 6566 e2bd 6f15 5ebe 7b43 9abe 268c 98be
000001b0: 8b2c e7bd f8cd 6fbe 83fa c5be a250 7abe
000001c0: af06 a7be 27e5 a2be 7154 01be 5dbc b6be
000001d0: 7843 acbe 3bb7 c4be 1915 2ebe 6a09 dfbe
000001e0: d4a3 ecbd 573f 96be faf3 28be 81ac 7ebe
000001f0: f319 99bd d2eb 1ebe 5998 1ebd 13e5 95be
00000200: 2f83 77be 6981 8ebe db64 2a3e a0fc 90be
00000210: a63b 373e d789 67bd 7fc9 eebe d91d 29be
00000220: 8c0e afbe ebf8 45be b503 38be a2b2 4bbe
00000230: af2f 8abe 97a1 2dbe 9565 a2bd b47c d6bd
00000240: 3593 c8be 12d7 44be da79 27be 0a72 9bbe
00000250: 9e02 85be c623 04be 5f8b 2bbe e385 7ebd
00000260: 6f02 71bd bddf 0c3e 44db 01be e470 08bd
00000270: 9dcc 33ba d4b1 b9be b6af 003b 5643 713d
00000280: 28dc 8c3d 2314 12be 3710 e73b 4866 813c
00000290: b8ca 53be aa58 62be 93b7 b6be 39fb ecbe
000002a0: 32f8 9b3c 36d4 a9be 47f3 32bd 700d a4be
000002b0: 576e e2bd 52ba 84be 3e02 cebe 6eeb 69be
000002c0: e544 f7bc 51f0 8cbe 442e 3ebe a9ab b9ba
000002d0: c3e7 77be 893a 57bc 092e c4bd f886 b33d
000002e0: 4b19 6c3d 2eac 7bbe 91aa f8bd 265d 5abd
000002f0: c475 af3d 9b12 273e e4d6 99be 93c9 923c
00000300: e8cb 52be 8335 c9be f8a4 0abe 255e edbd
00000310: 91d1 60be 4632 9ebe bf79 5fbe 0390 1dbe
00000320: 024a 9ebe b9ad 56bd 8f1f f7bd 0ddf 99bc
00000330: feb1 7abe a77e 0ebe 3c91 89be 05ab b3bd
00000340: 24f9 babe 2c27 acbd 9ee2 bdbd 58e5 14bb
00000350: 1c1e 62bd bdbf 97be 802e cb3c ecfd 0abe
00000360: 531d 203d d3d5 a53d 65e3 55bd a2fc 46be
00000370: 7924 f4bc 7310 153e 88f2 413e 00ac a9be
00000380: c7a0 c5be 52b7 2cbe f760 97bd 8374 6dbd
00000390: fda4 5fbe ae7e 0dbe b5db 6cbe 7286 f4bd
000003a0: 0188 15be 6983 85bd f491 8ebe 19b4 2abd
000003b0: a1d5 09be c837 cfbd 25cb 72bd 2f24 59be
000003c0: a645 8cbd c325 afbe 3cf6 4abe a2df 54be
000003d0: 3e1e fcbd 8c38 e9bd 6a06 943c 6aae 98bd
000003e0: ded8 64be e993 9fbd 6e40 1dbe b204 81be
000003f0: b56c 93be 03d5 16be 3ee0 59bd 4d4b 88be

net.3.weight f4 [128, 256]
0.040249527 0.041169442 0.010667518 -0.07032931 -0.16685176 -0.010109895 -0.013624556 -0.14478774
0.024556568 0.06147641 0.02010253 -0.0417835 -0.15775238 -0.056580115 -0.0084008435 0.065113105
-0.07316078 0.028584009 0.024318011 -0.12253744 -0.043465674 -0.024979075 -0.1186952 0.036357716
-0.014503259 -0.018776653 -0.008630699 -0.14915012 0.041782495 -0.0032649152 -0.066515855 -0.018657846
-0.11221743 -0.039380305 -0.088282816 -0.08473088 -0.062307343 -0.06462574 0.025561007 -0.11981717
0.05190843 -0.037828702 -0.017973708 -0.11833074 0.027247377 -0.0008632717 0.00018622691 -0.03910379
-0.1504001 -0.030078882 -0.006788909 -0.031285837 -0.13975258 -0.0666179 0.025971545 -0.059012022
-0.042460546 -0.113026455 -0.034927342 -0.044316445 -0.09048257 -0.06925242 -0.017638985 -0.041998662
-0.0109480005 -0.08850346 -0.052924745 -0.14868106 -0.056840584 -0.02872387 -0.053396605 -0.08865189
-0.03849045 -0.02015856 -0.0055102403 -0.06747301 0.019708697 -0.04529402 -0.13641086 -0.092035525
-0.06819565 -0.016616575 -0.02976365 -0.12494861 0.07456369 -0.053026397 0.01727636 -0.09306527
-0.061629727 0.053420123 0.0074497424 0.034182362 -0.062450822 -0.0036192923 0.06727919 -0.057234623
-0.03249077 -0.13744925 -0.0073394664 0.024373107 -0.0988883 -0.08432026 -0.027028749 0.014142954
-0.08525674 -0.09740556 0.021674953 -0.08657624 -0.10544137 0.0109828375 -0.0072869183 -0.090890564
0.00536644 -0.11791794 -0.052811623 -0.044119496 0.005517564 -0.050142825 0.032027274 0.00061792845
-0.050310068 -0.028198807 -0.011431361 -0.03492236 -0.008917875 -0.07979051 -0.04759515 0.018237688
-0.07815515 -0.061227202 -0.02141883 -0.06639522 -0.091712445 -0.0782605 0.047886554 -0.06927897
0.0026688643 -0.07238713 -0.05093638 0.04717713 -0.009748836 -0.054203715 0.105306625 -0.030210447
-0.004940544 -0.09519892 -0.16939141 -0.07582463 -0.066886805 -0.07143439 -0.04373552 0.026456418
-0.06941111 -0.17021182 0.093940124 0.027458895 -0.025098057 -0.12118867 0.013300748 -0.05306752
-0.10583067 -0.027885662 -0.08797358 0.006194313 -0.039474685 0.022182614 0.016347041 -0.04993807
-0.055883277 -0.05750721 0.015306903 -0.06658936 -0.08009393 -0.008422181 -0.10861794 -0.05767394
-0.14054857 0.00671165 -0.017900633 0.057951234 -0.02248092 -0.081880644 0.009922922 -0.08214552
0.009479407 0.015570134 -0.04097942 0.0569363 -0.083827525 -0.040773418 0.03257147 -0.1344384
-0.034058474 -0.045562223 -0.08548058 0.03148851 -0.0058710985 0.009497095 -0.04625303 -0.073556066
-0.053653073 -0.063060805 -0.10096375 -0.14335927 0.019722216 0.016791206 -0.028832115 0.033723544
-0.049313154 -0.04037502 -0.01426013 -0.026815657 -0.054141086 0.02450827 -0.02654544 -0.06478345
-0.13591465 -0.13795853 -0.042519145 -0.10299587 -0.014364689 -0.082506545 -0.07806141 -0.06696436
-0.10305152 -0.026023222 -0.047441646 -0.007084505 0.01204801 -0.042951453 -0.039974097 0.0035513705
-0.09645974 0.0671956 -0.011431217 -0.05186511 -0.11904159 -0.10280624 -0.04275341 0.0022723428
0.017717578 0.0037564589 0.02668441 -0.11561713 -0.06121424 -0.096517906 0.026671898 0.07009821
-0.028008843 -0.06441401 -0.0058533046 -0.058132228 -0.076215506 -0.08814589 -0.04844655 0.0033814271
00000000: b0dc 243d 4aa1 283d d0c6 2e3c d008 90bd
00000010: 30db 2abe f9a3 25bc 8839 5fbc 3d43 14be
00000020: db2a c93c b0ce 7b3d 10ae a43c 2d25 2bbd
00000030: d789 21be 8dc0 67bd b1a3 09bc 055a 853d
00000040: 52d5 95bd 0329 ea3c 9136 c73c e9f4 fabd
00000050: 1009 32bd eba0 ccbc 7816 f3bd d4eb 143d
00000060: 149f 6dbc 7fd1 99bc c667 0dbc cfba 18be
00000070: 1f24 2b3d 30f8 55bb 7739 88bd 57d8 98bc
00000080: 40d2 e5bd 3e4d 21bd 9fcd b4bd 6287 adbd
00000090: fc35 7fbd 805a 84bd 5165 d13c b462 f5bd
000000a0: ef9d 543d 45f2 1abd 993d 93bc 6357 f2bd
000000b0: e435 df3c 2f4d 62ba e845 4339 4c2b 20bd
000000c0: 7c02 1abe fd67 f6bc 7f75 debb 9425 00bd
000000d0: 4d1b 0fbe f76e 88bd 47c2 d43c 97b6 71bd
000000e0: 1ceb 2dbd 6a7a e7bd f90f 0fbd 2985 35bd
000000f0: ed4e b9bd 36d4 8dbd a27f 90bc ca06 2cbd
00000100: 3e5f 33bc 4d41 b5bd 9ec7 58bd d93f 18be
00000110: acd1 68bd 524e ebbc 66b6 5abd 1f8f b5bd
00000120: 29a8 1dbd 9023 a5bc 3f8f b4bb 4a2f 8abd
00000130: 2274 a13c 3986 39bd 4aaf 0bbe 1f7d bcbd
00000140: 29aa 8bbd 7c1f 88bc e6d2 f3bc 0fe5 ffbd
00000150: d9b4 983d 3532 59bd 2787 8d3c 0199 bebd
00000160: 746f 7cbd 0fcf 5a3d f81c f43b ce02 0c3d
00000170: 6fcc 7fbd a631 6dbb acc9 893d da6e 6abd
00000180: 0b15 05bd 7fbf 0cbe e87f f0bb 1caa c73c
00000190: f385 cabd 1ab0 acbd 656b ddbc d9b7 673c
000001a0: 169b aebd 917c c7bd ac8f b13c e24e b1bd
000001b0: a5f1 d7bd 5cf1 333c 1ac7 eebb d524 babd
000001c0: f6d8 af3b f67e f1bd 0051 58bd a5b6 34bd
000001d0: aecc b43b 9062 4dbd 082f 033d 7afc 213a
000001e0: ee11 4ebd 2f01 e7bc 9a4a 3bbc c00a 0fbd
000001f0: 471c 12bc 3569 a3bd 22f3 42bd 3467 953c
00000200: cf0f a0bd 60c9 7abd 8b76 afbc 38fa 87bd
00000210: bcd3 bbbd 0b47 a0bd b124 443d 22e2 8dbd
00000220: 1de8 2e3b b43f 94bd aaa2 50bd ce3c 413d
00000230: 95b9 1fbc b704 5ebd 00ab d73d e67b f7bc
00000240: 49e4 a1bb a7f7 c2bd f174 2dbe f249 9bbd
00000250: f3fb 88bd 324c 92bd 0424 33bd 21bb d83c
00000260: 6927 8ebd 024c 2ebe ae63 c03d 7af1 e03c
00000270: 719a cdbc c431 f8bd 61eb 593c 545d 59bd
00000280: c0bd d8bd 7970 e4bc 7e2b b4bd aaf9 ca3b
00000290: 35b0 21bd 50b8 b53c 3bea 853c dd8b 4cbd
000002a0: dde5 64bd ae8c 6bbd cec9 7a3c 0160 88bd
000002b0: 4908 a4bd 30fd 09bc 1573 debd 823b 6cbd
000002c0: f7eb 0fbe 67ed db3b 59a4 92bc 465e 6d3d
000002d0: e829 b8bc 0ab1 a7bd c093 223c e93b a8bd
000002e0: 844f 1b3c e019 7f3c 09da 27bd 0a36 693d
000002f0: c4ad abbd 0702 27bd a969 053d 38aa 09be
00000300: e680 0bbd 749f 3abd 7110 afbd 19fa 003d
00000310: 5862 c0bb b499 1b3c d173 3dbd 90a4 96bd
00000320: 53c3 5bbd 0626 81bd 15c6 cebd c6cc 12be
00000330: 7c90 a13c b68d 893c 5431 ecbc b321 0a3d
00000340: 97fc 49bd 4760 25bd 52a3 69bc 82ac dbbc
00000350: 0bc3 5dbd 91c5 c83c d375 d9bc 2fad 84bd
00000360: 362d 0bbe 0045 0dbe 8e28 2ebd 80ef d2bd
00000370: df59 6bbc 31f9 a8bd a9de 9fbd 9c24 89bd
00000380: ad0c d3bd a72e d5bc 2c52 42bd 2325 e8bb
00000390: 0465 453c dded 2fbd e1bb 23bd 1cbe 683b
000003a0: af8c c5bd d99d 893d 004a 3bbc 8270 54bd
000003b0: 14cc f3bd 148c d2bd 331e 2fbd 96eb 143b
000003c0: 7424 913c ec2e 763b 4499 da3c adc8 ecbd
000003d0: c8bb 7abd 2eab c5bd 067f da3c a68f 8f3d
000003e0: cd72 e5bc 7eeb 83bd 14cd bfbb 0f1c 6ebd
000003f0: e016 9cbd d585 b4bd e46f 46bd ef9a 5d3b

net.3.bias f4 [128]
-0.072349355 0.29986852 0.00047559687 0.050515447 0.16216056 0.12074583 0.11541293 0.16541432
0.04483696 0.20245329 -0.027407194 0.3003969 0.25842854 0.048369177 0.1280887 0.1851042
0.11209229 -0.019093936 0.08953176 0.20794387 0.30483547 0.18713191 0.25933033 0.15962987
-0.0129574565 0.19675863 0.19064717 0.13511014 0.113686055 0.33598304 -0.11409233 -0.059838153
0.30831227 0.16378692 0.076591685 0.2272637 0.0947689 -0.031008849 0.2699785 0.2938432
-0.079673134 -0.002032026 0.17206942 0.21337856 0.0983546 0.23348837 0.19560291 0.024606654
0.20034093 0.25135747 0.095842004 0.17056248 0.21243678 0.18649647 -0.017150143 -0.083351
-0.081270374 0.22389667 0.15001652 0.17945911 0.21074517 0.061266568 0.10938801 0.22648287
0.11104116 -0.024833437 0.118927106 0.29356036 0.07920767 -0.031764757 -0.042366106 0.12201424
0.043343574 0.20314126 0.12190961 0.24655384 0.11276681 -0.11399317 -0.019003307 0.11781232
0.23359199 0.15243013 0.20490116 0.18776168 0.17353559 0.2393834 0.054594573 0.11287959
0.19012927 0.1932812 0.14461894 0.23334087 0.17911379 -0.03549901 0.21302176 0.240179
0.15546012 -0.06582042 0.13497324 0.2298994 -0.04111367 -0.19143416 0.24974397 0.1674129
0.004271412 0.30519295 0.112689 0.22663978 0.18709067 0.26356402 0.052134514 0.25578156
0.014472057 0.29548034 0.22188957 0.23520172 0.036481343 -0.030755356 0.13848889 0.16723484
0.1698145 0.28480825 0.069929495 0.15901206 0.15497445 0.2587006 0.10559622 0.1530449
00000000: e62b 94bd 5e88 993e 8859 f939 49e9 4e3d
00000010: 6b0d 263e 9749 f73d 9d5d ec3d 5f62 293e
00000020: f6a6 373d ea4f 4f3e 0d85 e0bc 9fcd 993e
00000030: bf50 843e c21e 463d af29 033e f58b 3d3e
00000040: a490 e53d e36a 9cbc 6d5c b73d 3def 543e
00000050: 6513 9c3e 829f 3f3e f2c6 843e 0376 233e
00000060: 834b 54bc 187b 493e 0339 433e 505a 0a3e
00000070: 3cd4 e83d f805 ac3e 3da9 e9bd da18 75bd
00000080: 1bdb 9d3e c2b7 273e 1adc 9c3d d1b7 683e
00000090: 3216 c23d 4506 febc 9f3a 8a3e 9e72 963e
000000a0: ab2b a3bd bd2b 05bb f732 303e e97f 5a3e
000000b0: 236e c93d 9317 6f3e 214c 483e e593 c93c
000000c0: 2c26 4d3e edb1 803e d048 c43d eea7 2e3e
000000d0: 0789 593e eef8 3e3e 757e 8cbc eeb3 aabd
000000e0: 1571 a6bd 2b45 653e ee9d 193e 21c4 373e
000000f0: 95cd 573e a7f2 7a3d d206 e03d 20eb 673e
00000100: 8c69 e33d 7e6f cbbc 0e90 f33d 8b4d 963e
00000110: a237 a23d c31b 02bd 1588 2dbd 9ae2 f93d
00000120: 0889 313d 4304 503e bfab f93d 9c78 7c3e
00000130: 49f2 e63d 4075 e9bd d3ac 9bbc 9647 f13d
00000140: bd32 6f3e a516 1c3e 9cd1 513e 9944 403e
00000150: 50b3 313e ec20 753e 8f9e 5f3d 6a2d e73d
00000160: 3fb1 423e 82eb 453e fd16 143e e9f0 6e3e
00000170: 9b69 373e 6967 11bd 6022 5a3e 7cf1 753e
00000180: f030 1f3e dbcc 86bd 6d36 0a3e c06a 6b3e
00000190: cf66 28bd 5107 44be e2bc 7f3e 4a6e 2b3e
000001a0: 33f7 8b3b 4042 9c3e 7ec9 e63d 4214 683e
000001b0: b294 3f3e ddf1 863e 008b 553d cdf5 823e
000001c0: 351c 6d3c 3349 973e 0537 633e b8d8 703e
000001d0: 766d 153d a8f2 fbbc 08d0 0d3e 9c3f 2b3e
000001e0: dae3 2d3e 63d2 913e 3237 8f3d 0fd4 223e
000001f0: 9fb1 1e3e 6874 843e d542 d83d cdb7 1c3e

net.6.weight f4 [1, 128]
0.023891417 0.048201453 -0.015718011 0.098202825 -0.04415718 0.0642065 0.17291312 0.1962354
0.08524051 -0.022612585 -0.077843174 0.06567749 0.09309873 -0.03031258 -0.024421986 0.1253859
0.15125813 -0.028268123 0.07707738 -0.018879792 0.048609797 0.035810497 0.038695958 0.059735466
-0.008477272 -0.011507158 0.05584436 -0.022371735 0.057013854 -0.041349735 -0.13477007 -0.00079555565
-0.020182947 0.04856607 -0.033078898 0.09038704 -0.022686468 -0.0069877054 0.07418793 -0.012354335
-0.09887481 -0.12620394 0.052015282 0.1623075 0.08248612 -0.01851368 0.10549224 0.18403348
0.051915135 -0.033844456 -0.02809666 -0.025649222 0.027473455 0.15932824 0.04905649 0.0045813657
0.16220072 0.058611255 0.05531695 0.062906906 0.12109001 0.0580829 0.110328905 -0.010973324
0.16612443 0.048603576 0.073274314 -0.024420375 0.23158805 -0.030797381 0.0017695382 -0.035838317
0.10628787 -0.027010752 0.081870556 0.07711212 0.16743256 0.0036767698 0.26514083 0.17996511
0.04019901 0.0541492 -0.012746999 0.010684319 0.07233216 -0.013177854 0.019767685 -0.020273235
-0.015578915 -0.12066861 -0.11346068 0.06808229 0.14715606 -0.020889852 -0.027818734 0.05083991
-0.014651751 0.0020261789 0.18307343 0.081188165 -0.15638365 0.1278563 -0.016312236 -0.05842536
0.1289821 -0.055448614 -0.048980627 -0.037118927 0.080104806 0.06049593 -0.023695631 -0.018755954
0.09240173 -0.05589686 0.11923869 -0.016447809 -0.052989505 0.0039249333 -0.013843523 -0.054540142
-0.06735832 -0.04179766 -0.0095152855 0.039290674 0.06271915 0.075118914 0.056601427 -0.018564677
00000000: efb7 c33c e36e 453d 0fc3 80bc 901e c93d
00000010: 29de 34bd b37e 833d 2310 313e eff1 483e
00000020: 9492 ae3d 073e b9bc 3e6c 9fbd eb81 863d
00000030: 8caa be3d 1652 f8bc 9e10 c8bc 2965 003e
00000040: 69e3 1a3e 8d92 e7bc bfda 9d3d cba9 9abc
00000050: 111b 473d 07ae 123d a77f 1e3d 2dad 743d
00000060: 41e4 0abc 8588 3cbc 0ebd 643d ee44 b7bc
00000070: 5c87 693d 575e 29bd 2a01 0abe d68c 50ba
00000080: b556 a5bc 37ed 463d bd7d 07bd d71c b93d
00000090: f9d8 b9bc 1ff9 e4bb d7ef 973d d669 4abc
000000a0: e07e cabd 9b3b 01be fa0d 553d f033 263e
000000b0: 7cee a83d 00aa 97bc 510c d83d 4673 3c3e
000000c0: f7a4 543d 7ca0 0abd f72a e6bc 511e d2bc
000000d0: 0310 e13c f126 233e 75ef 483d 481f 963b
000000e0: f217 263e 5b12 703d 0794 623d 56d5 803d
000000f0: 0afe f73d 56e8 6d3d 1ff4 e13d 75c9 33bc
00000100: 861c 2a3e 8b14 473d d810 963d 3d0d c8bc
00000110: 6b25 6d3e ca4a fcbc d9ef e73a 33cb 12bd
00000120: 74ad d93d a745 ddbc c0ab a73d f6ec 9d3d
00000130: 7173 2b3e f6f5 703b 8ac0 873e c648 383e
00000140: b8a7 243d 8dcb 5d3d cad8 50bc 480d 2f3c
00000150: e222 943d ede7 57bc d7ef a13c 0e14 a6bc
00000160: b53e 7fbc 1b21 f7bd 135e e8bd ba6e 8b3d
00000170: 14b0 163e 3221 abbc 1de4 e3bc 823d 503d
00000180: e60d 70bc a4c9 043b 9a77 3b3e fb45 a63d
00000190: 0923 20be c3ec 023e 3da1 85bc 6e4f 6fbd
000001a0: e213 043e 161e 63bd e99f 48bd 040a 18bd
000001b0: fd0d a43d 95ca 773d 571d c2bc 16a6 99bc
000001c0: 1e3d bd3d 1bf4 64bd 6a33 f43d 8ebd 86bc
000001d0: 860b 59bd ba9c 803b f2cf 62bc 7c65 5fbd
000001e0: 29f3 89bd 0634 2bbd 00e6 1bbc 42ef 203d
000001f0: e672 803d f2d7 993d e6d6 673d f314 98bc
